…
MODEL_INPUT_TYPE = InputType.SEQ
device = cuda:0
item_emb_pretrain = /data/user_data/jingyuah/LLARA/checkpoints/pixel_200k_item_token_EBAE_logs/checkpoint-1400/Pixel200K_SFT_fixed_tr0.2_lr_1e-6/checkpoint-1500/causal_lm_dir/item_token_word_embed.bin


24 Nov 08:51    INFO  Pixel200K
The number of users: 200001
Average actions of users: 19.82828
The number of items: 96283
Average actions of items: 41.187927130720176
The number of inters: 3965656
The sparsity of the dataset: 99.9794063532928%
24 Nov 08:51    INFO  HLLM(
  (item_llm): LlamaForCausalLM(
    (model): LlamaModel(
      (embed_tokens): Embedding(32000, 2048)
      (layers): ModuleList(
        (0-21): 22 x LlamaDecoderLayer(
          (self_attn): LlamaAttention(
            (q_proj): Linear(in_features=2048, out_features=2048, bias=False)
            (k_proj): Linear(in_features=2048, out_features=256, bias=False)
            (v_proj): Linear(in_features=2048, out_features=256, bias=False)
            (o_proj): Linear(in_features=2048, out_features=2048, bias=False)
            (rotary_emb): LlamaRotaryEmbedding()
          )
          (mlp): LlamaMLP(
            (gate_proj): Linear(in_features=2048, out_features=5632, bias=False)
            (up_proj): Linear(in_features=2048, out_features=5632, bias=False)
            (down_proj): Linear(in_features=5632, out_features=2048, bias=False)
            (act_fn): SiLUActivation()
          )
          (input_layernorm): LlamaRMSNorm()
          (post_attention_layernorm): LlamaRMSNorm()
        )
      )
      (norm): LlamaRMSNorm()
    )
    (lm_head): Linear(in_features=2048, out_features=32000, bias=False)
  )
  (user_llm): LlamaForCausalLM(
    (model): LlamaModel(
      (embed_tokens): Embedding(32000, 2048)
      (layers): ModuleList(
        (0-21): 22 x LlamaDecoderLayer(
          (self_attn): LlamaAttention(
            (q_proj): Linear(in_features=2048, out_features=2048, bias=False)
            (k_proj): Linear(in_features=2048, out_features=256, bias=False)
            (v_proj): Linear(in_features=2048, out_features=256, bias=False)
            (o_proj): Linear(in_features=2048, out_features=2048, bias=False)
            (rotary_emb): LlamaRotaryEmbedding()
          )
          (mlp): LlamaMLP(
            (gate_proj): Linear(in_features=2048, out_features=5632, bias=False)
            (up_proj): Linear(in_features=2048, out_features=5632, bias=False)
            (down_proj): Linear(in_features=5632, out_features=2048, bias=False)
            (act_fn): SiLUActivation()
          )
          (input_layernorm): LlamaRMSNorm()
          (post_attention_layernorm): LlamaRMSNorm()
        )
      )
      (norm): LlamaRMSNorm()
    )
    (lm_head): Linear(in_features=2048, out_features=32000, bias=False)
  )
)
Trainable parameters: 2200098817.0
local rank: 0 has gpu mem: (84497137664, 85097971712)
24 Nov 08:51    INFO  Use consine scheduler with 9485.5 warmup 94855 total steps
24 Nov 08:51    INFO  Use deepspeed strategy
Train [  0/  5]:   0%|          | 0/18971 [00:00<?, ?it/s]Train [  0/  5]:   0%|          | 20/18971 [00:06<1:35:28,  3.31it/s, lr: 0.0000000 loss: 6.4375 data: 2.881 fwd: 1.646 bwd: 1.514 nce_samples: 177.000 nce_top1_acc: 0.097 nce_top5_acc: 0.181 nce_top10_acc: 0.222 nce_top50_acc: 0.486 nce_top100_acc: 0.681]24 Nov 08:51    INFO  
…
