…
user_pretrain_dir = /data/user_data/jingyuah/HLLM_weights/checkpoints/TinyLlama-1.1B-intermediate-step-1431k-3T
user_llm_init = True
use_ft_flash_attn = True
MODEL_INPUT_TYPE = InputType.SEQ
device = cuda:0
auto_resume = /data/user_data/jingyuah/HLLM_weights/checkpoints/repro_tiny_llama_1.1b_pixelrec_200K/HLLM-0.pth


08 Dec 08:21    INFO  Pixel200K
The number of users: 200001
Average actions of users: 19.82828
The number of items: 96283
Average actions of items: 41.187927130720176
The number of inters: 3965656
The sparsity of the dataset: 99.9794063532928%
08 Dec 08:21    INFO  HLLM(
  (item_llm): LlamaForCausalLM(
    (model): LlamaModel(
      (embed_tokens): Embedding(32000, 2048)
      (layers): ModuleList(
        (0-21): 22 x LlamaDecoderLayer(
          (self_attn): LlamaAttention(
            (q_proj): Linear(in_features=2048, out_features=2048, bias=False)
            (k_proj): Linear(in_features=2048, out_features=256, bias=False)
            (v_proj): Linear(in_features=2048, out_features=256, bias=False)
            (o_proj): Linear(in_features=2048, out_features=2048, bias=False)
            (rotary_emb): LlamaRotaryEmbedding()
          )
          (mlp): LlamaMLP(
            (gate_proj): Linear(in_features=2048, out_features=5632, bias=False)
            (up_proj): Linear(in_features=2048, out_features=5632, bias=False)
            (down_proj): Linear(in_features=5632, out_features=2048, bias=False)
            (act_fn): SiLUActivation()
          )
          (input_layernorm): LlamaRMSNorm()
          (post_attention_layernorm): LlamaRMSNorm()
        )
      )
      (norm): LlamaRMSNorm()
    )
    (lm_head): Linear(in_features=2048, out_features=32000, bias=False)
  )
  (user_llm): LlamaForCausalLM(
    (model): LlamaModel(
      (embed_tokens): Embedding(32000, 2048)
      (layers): ModuleList(
        (0-21): 22 x LlamaDecoderLayer(
          (self_attn): LlamaAttention(
            (q_proj): Linear(in_features=2048, out_features=2048, bias=False)
            (k_proj): Linear(in_features=2048, out_features=256, bias=False)
            (v_proj): Linear(in_features=2048, out_features=256, bias=False)
            (o_proj): Linear(in_features=2048, out_features=2048, bias=False)
            (rotary_emb): LlamaRotaryEmbedding()
          )
          (mlp): LlamaMLP(
            (gate_proj): Linear(in_features=2048, out_features=5632, bias=False)
            (up_proj): Linear(in_features=2048, out_features=5632, bias=False)
            (down_proj): Linear(in_features=5632, out_features=2048, bias=False)
            (act_fn): SiLUActivation()
          )
          (input_layernorm): LlamaRMSNorm()
          (post_attention_layernorm): LlamaRMSNorm()
        )
      )
      (norm): LlamaRMSNorm()
    )
    (lm_head): Linear(in_features=2048, out_features=32000, bias=False)
  )
)
Trainable parameters: 2200098817.0
local rank: 0 has gpu mem: (84348239872, 85097971712)
08 Dec 08:21    INFO  Use consine scheduler with 9485.5 warmup 94855 total steps
08 Dec 08:21    INFO  Use deepspeed strategy
08 Dec 08:21    INFO  Loading checkpoint from /data/user_data/jingyuah/HLLM_weights/checkpoints/repro_tiny_llama_1.1b_pixelrec_200K/HLLM-0.pth
…
