…
item_llm_init = True
user_pretrain_dir = /data/user_data/jingyuah/HLLM_weights/checkpoints/TinyLlama-1.1B-intermediate-step-1431k-3T
user_llm_init = True
use_ft_flash_attn = True
adapter = [768, 2048]
MODEL_INPUT_TYPE = InputType.SEQ
device = cuda:0


05 Dec 23:38    INFO  Pixel200K
The number of users: 200001
Average actions of users: 19.82828
The number of items: 96283
Average actions of items: 41.187927130720176
The number of inters: 3965656
The sparsity of the dataset: 99.9794063532928%
05 Dec 23:38    INFO  BGEHLLM(
  (item_llm): BertModel(
    (embeddings): BertEmbeddings(
      (word_embeddings): Embedding(30522, 768, padding_idx=0)
      (position_embeddings): Embedding(512, 768)
      (token_type_embeddings): Embedding(2, 768)
      (LayerNorm): LayerNorm((768,), eps=1e-12, elementwise_affine=True)
      (dropout): Dropout(p=0.1, inplace=False)
    )
    (encoder): BertEncoder(
      (layer): ModuleList(
        (0-11): 12 x BertLayer(
          (attention): BertAttention(
            (self): BertSelfAttention(
              (query): Linear(in_features=768, out_features=768, bias=True)
              (key): Linear(in_features=768, out_features=768, bias=True)
              (value): Linear(in_features=768, out_features=768, bias=True)
              (dropout): Dropout(p=0.1, inplace=False)
            )
            (output): BertSelfOutput(
              (dense): Linear(in_features=768, out_features=768, bias=True)
              (LayerNorm): LayerNorm((768,), eps=1e-12, elementwise_affine=True)
              (dropout): Dropout(p=0.1, inplace=False)
            )
          )
          (intermediate): BertIntermediate(
            (dense): Linear(in_features=768, out_features=3072, bias=True)
            (intermediate_act_fn): GELUActivation()
          )
          (output): BertOutput(
            (dense): Linear(in_features=3072, out_features=768, bias=True)
            (LayerNorm): LayerNorm((768,), eps=1e-12, elementwise_affine=True)
            (dropout): Dropout(p=0.1, inplace=False)
          )
        )
      )
    )
    (pooler): BertPooler(
      (dense): Linear(in_features=768, out_features=768, bias=True)
      (activation): Tanh()
    )
  )
  (user_llm): LlamaForCausalLM(
    (model): LlamaModel(
      (embed_tokens): Embedding(32000, 2048)
      (layers): ModuleList(
        (0-21): 22 x LlamaDecoderLayer(
          (self_attn): LlamaAttention(
            (q_proj): Linear(in_features=2048, out_features=2048, bias=False)
            (k_proj): Linear(in_features=2048, out_features=256, bias=False)
            (v_proj): Linear(in_features=2048, out_features=256, bias=False)
            (o_proj): Linear(in_features=2048, out_features=2048, bias=False)
            (rotary_emb): LlamaRotaryEmbedding()
          )
          (mlp): LlamaMLP(
            (gate_proj): Linear(in_features=2048, out_features=5632, bias=False)
            (up_proj): Linear(in_features=2048, out_features=5632, bias=False)
            (down_proj): Linear(in_features=5632, out_features=2048, bias=False)
            (act_fn): SiLUActivation()
          )
          (input_layernorm): LlamaRMSNorm()
          (post_attention_layernorm): LlamaRMSNorm()
        )
      )
      (norm): LlamaRMSNorm()
    )
    (lm_head): Linear(in_features=2048, out_features=32000, bias=False)
  )
  (adapter): Linear(in_features=768, out_features=2048, bias=True)
)
Trainable parameters: 1211105537.0
local rank: 0 has gpu mem: (50443124736, 50928943104)
05 Dec 23:38    INFO  Use consine scheduler with 2371.5 warmup 23715 total steps
05 Dec 23:38    INFO  Use deepspeed strategy
local rank: 2 has gpu mem: (50443124736, 50928943104)
local rank: 3 has gpu mem: (50443124736, 50928943104)
Train [  0/  5]:   0%|     
…
