…
item_pretrain_dir = /data/user_data/jingyuah/HLLM_weights/checkpoints/TinyLlama-1.1B-intermediate-step-1431k-3T
item_llm_init = True
user_pretrain_dir = /data/user_data/jingyuah/HLLM_weights/checkpoints/TinyLlama-1.1B-intermediate-step-1431k-3T
user_llm_init = True
use_ft_flash_attn = True
MODEL_INPUT_TYPE = InputType.SEQ
device = cuda:0


28 Oct 23:30    INFO  Pixel200K
The number of users: 200001
Average actions of users: 19.82828
The number of items: 96283
Average actions of items: 41.187927130720176
The number of inters: 3965656
The sparsity of the dataset: 99.9794063532928%
28 Oct 23:30    INFO  HLLM(
  (item_llm): LlamaForCausalLM(
    (model): LlamaModel(
      (embed_tokens): Embedding(32000, 2048)
      (layers): ModuleList(
        (0-21): 22 x LlamaDecoderLayer(
          (self_attn): LlamaAttention(
            (q_proj): Linear(in_features=2048, out_features=2048, bias=False)
            (k_proj): Linear(in_features=2048, out_features=256, bias=False)
            (v_proj): Linear(in_features=2048, out_features=256, bias=False)
            (o_proj): Linear(in_features=2048, out_features=2048, bias=False)
            (rotary_emb): LlamaRotaryEmbedding()
          )
          (mlp): LlamaMLP(
            (gate_proj): Linear(in_features=2048, out_features=5632, bias=False)
            (up_proj): Linear(in_features=2048, out_features=5632, bias=False)
            (down_proj): Linear(in_features=5632, out_features=2048, bias=False)
            (act_fn): SiLUActivation()
          )
          (input_layernorm): LlamaRMSNorm()
          (post_attention_layernorm): LlamaRMSNorm()
        )
      )
      (norm): LlamaRMSNorm()
    )
    (lm_head): Linear(in_features=2048, out_features=32000, bias=False)
  )
  (user_llm): LlamaForCausalLM(
    (model): LlamaModel(
      (embed_tokens): Embedding(32000, 2048)
      (layers): ModuleList(
        (0-21): 22 x LlamaDecoderLayer(
          (self_attn): LlamaAttention(
            (q_proj): Linear(in_features=2048, out_features=2048, bias=False)
            (k_proj): Linear(in_features=2048, out_features=256, bias=False)
            (v_proj): Linear(in_features=2048, out_features=256, bias=False)
            (o_proj): Linear(in_features=2048, out_features=2048, bias=False)
            (rotary_emb): LlamaRotaryEmbedding()
          )
          (mlp): LlamaMLP(
            (gate_proj): Linear(in_features=2048, out_features=5632, bias=False)
            (up_proj): Linear(in_features=2048, out_features=5632, bias=False)
            (down_proj): Linear(in_features=5632, out_features=2048, bias=False)
            (act_fn): SiLUActivation()
          )
          (input_layernorm): LlamaRMSNorm()
          (post_attention_layernorm): LlamaRMSNorm()
        )
      )
      (norm): LlamaRMSNorm()
    )
    (lm_head): Linear(in_features=2048, out_features=32000, bias=False)
  )
)
Trainable parameters: 2200098817.0
28 Oct 23:30    INFO  Use consine scheduler with 18970.5 warmup 189705 total steps
28 Oct 23:30    INFO  Use deepspeed strategy
Train [  0/  5]:   0%|          | 0/37941 [00:00<?, ?it/s]data['pos_input_ids'].size():  torch.Size([7415])
batch_idx:  0
(31399346176, 85097971712)
Train [  0/  5]:   0%|          | 20/37941 [00:03<1:59:14,  5.30it/s, lr: 0.0000000 loss: 4.6250 data: 0.858 fwd: 1.353 bwd: 1.562 nce_samples: 89.000 nce_top1_acc: 0.027 nce_top5_acc: 0.135 nce_top10_acc: 0.189 nce_top50_acc: 0.649]28 Oct 23:30    INFO  
…
